examples/example_model.tflite (tflite, 189860 bytes, 5 tensors)

conv2d/kernel f4 [64, 7, 7, 3]
-0.019508133 -0.025624726 -0.0011784988 0.009635118 -0.02221478 0.02843502 -0.04002766 0.021952009
0.019230148 -0.04228851 -0.016217602 -0.0058546043 0.016853826 -0.03680946 0.030529508 0.006487781
-0.02562432 0.04154987 0.018406495 -0.026933094 0.0170111 0.03104437 0.03699745 0.033049
-0.014631302 -0.01848275 -0.04002604 -0.010222176 -0.026950639 0.0023646269 -0.026337763 0.019644428
0.041089296 0.015371347 -0.016733158 0.0075661493 -0.040019672 -0.0095035685 0.03512229 -0.0050175292
0.01132099 -0.015462584 -0.0061711483 -0.020650016 0.030183759 0.0034438407 0.01929589 0.0072592646
-0.023586737 -0.02491874 -0.018562121 0.024618007 -1.0146345e-05 0.018495383 0.019381227 0.01536677
-0.0382071 -0.007238227 -0.01806958 -0.040822774 -0.00079352607 0.014813179 0.015021807 0.030758247
-0.01821626 0.0016497881 -0.00028799608 -0.03526396 -0.019664876 0.01206693 -0.019694155 0.021622188
0.023876032 0.0008418562 -0.016503206 -0.028591277 -0.004995237 -0.012828684 0.01768681 0.0045789503
0.04024558 0.038853504 0.030802153 0.02735037 -0.0031667838 -0.019411994 0.0048391656 0.0308187
0.023173874 0.025029907 -0.025329629 -0.0012429253 -0.0360603 -0.03323029 0.02842732 0.025943406
0.020398244 0.016671289 -0.036023512 -0.028848875 0.024190787 0.022973591 -0.00083411514 -0.016047016
0.033617496 -0.006083059 -0.009227916 0.0037588426 0.027046815 0.017083034 -0.033467863 0.03762754
0.007515883 -0.03474273 0.035759773 -0.012053597 0.03879389 -0.014385338 0.014585163 -0.0014668002
-0.026816256 0.022594234 0.010377789 0.002123062 -0.022938065 -0.028746013 0.032976195 0.035682548
-0.020673672 0.03239897 0.007895896 -0.03799344 0.03677775 0.015042222 0.04068974 -0.032452352
0.018040547 -0.011521008 -0.016115474 0.006511224 -0.029299801 -0.020831272 0.016555449 0.040652297
-0.01605488 0.037721172 -0.032483984 -0.04043412 -0.039749615 -0.04059025 0.00842348 0.009660996
-0.039472762 0.0060553383 0.025238642 -0.031652864 -0.026410013 -0.013414621 -0.04167988 0.002509595
0.023465754 0.022801554 0.013925837 -0.041669838 0.029893838 -0.0055524968 0.036187712 0.031003479
0.036291156 -0.026678063 -0.0066137 0.039850198 -0.035092108 0.005324932 0.04111346 0.034017023
-0.030560551 0.032588415 -0.030377638 0.017933557 0.00874963 0.01655055 -0.022247331 0.006008006
0.00824508 -0.018514302 0.026175845 0.009925582 0.008091808 -0.027417738 -0.028376231 0.03739449
-0.028236521 0.026081232 -0.029962286 0.027904037 0.030703876 0.013576479 -0.0007521476 0.023792217
-0.014158648 0.041132748 0.009174291 0.019931043 -0.01913728 0.04086268 -0.012383321 0.0054386454
0.028235236 0.013137975 -0.013156851 0.005979105 0.03219628 0.02549888 -0.022032782 0.024541035
0.03473413 0.0079680225 -0.039041672 -0.014023858 0.0055735265 0.025229966 0.0351612 0.040393416
0.004521535 0.018655356 0.025706217 0.02727637 -0.0024022895 0.008865258 0.026064446 -0.00754229
-0.04075951 0.02261361 -0.0017195913 -0.0038664944 0.017965915 -0.0075179944 -0.02945687 -0.009983761
-0.0020488577 0.016507983 -0.035140123 0.042685885 -0.032075375 -0.009145807 0.008615341 0.03725329
-0.030795768 0.024939911 -0.034728296 0.0027068437 -0.021859303 0.0018070621 0.027288368 0.026947614
00000000: 85cf 9fbc f2ea d1bc dc77 9aba 9ddc 1d3c
00000010: c5fb b5bc 8ff0 e83c 0bf4 23bd b3d4 b33c
00000020: 8b88 9d3c b736 2dbd c7da 84bc fbd7 bfbb
00000030: 0911 8a3c 84c5 16bd 0519 fa3c 7497 d43b
00000040: 18ea d1bc 3230 2a3d 38c9 963c cba2 dcbc
00000050: dd5a 8b3c c350 fe3c a38a 173d 635e 073d
00000060: 21b8 6fbc 2369 97bc 58f2 23bd ea7a 27bc
00000070: 96c7 dcbc dbf7 1a3b 4bc2 d7bc 5aed a03c
00000080: 404d 283d 1ad8 7b3c fa13 89bc 76ed f73b
00000090: abeb 23bd dbb4 1bbc 64dc 0f3d 166a a4bb
000000a0: ac7b 393c c756 7dbc 5837 cabb 392a a9bc
000000b0: ee43 f73c 0fb2 613b 6a12 9e3c 20df ed3b
000000c0: f938 c1bc 6322 ccbc 970f 98bc b4ab c93c
000000d0: 383a 2ab7 a183 973c 61c5 9e3c e8c4 7b3c
000000e0: 0c7f 1cbd a62e edbb a806 94bc c835 27bd
000000f0: a204 50ba fab2 723c 061e 763c b8f8 fb3c
00000100: 443a 95bc b43d d83a 2efe 96b9 f170 10bd
00000110: 3c18 a1bc 5fb4 453c a355 a1bc 0421 b13c
00000120: ab97 c33c 03b0 5c3a bb31 87bc 4138 eabc
00000130: 16af a3bb 672f 52bc eee3 903c 050b 963b
00000140: 8dd8 243d da24 1f3d cc54 fc3c e20d e03c
00000150: d189 4fbb e705 9fbc dd91 9e3b 8077 fc3c
00000160: 23d7 bd3c 850b cd3c 1580 cfbc a7e9 a2ba
00000170: f7b3 13bd 7c1c 08bd 69e0 e83c 4487 d43c
00000180: 381a a73c 3a92 883c 648d 13bd 7a54 ecbc
00000190: c22b c63c 1d33 bc3c 85a8 5aba 0875 83bc
000001a0: 80b2 093d 6654 c7bb af30 17bc ea56 763b
000001b0: 4891 dd3c b8f1 8b3c 9915 09bd 561f 1a3d
000001c0: cc47 f63b 654e 0ebd d778 123d 737c 45bc
000001d0: 58e6 1e3d 7bb0 6bbc 9cf6 6e3c a641 c0ba
000001e0: c4ad dbbc 8b17 b93c 9a07 2a3c 1223 0b3b
000001f0: 9ce8 bbbc c27c ebbc 0c12 073d dd27 123d
00000200: d55b a9bc c8b4 043d ca5d 013c 029f 1bbd
00000210: 44a4 163d a773 763c 49aa 263d c2ec 04bd
00000220: c5c9 933c 9cc2 3cbc 9904 84bc 1b5c d53b
00000230: 2306 f0bc 58a6 aabc 4b9f 873c 0683 263d
00000240: 8685 83bc 8481 1a3d ed0d 05bd 3f9e 25bd
00000250: 7ed0 22bd f641 26bd a302 0a3c 2749 1e3c
00000260: 31ae 21bd dc6b c63b 45c1 ce3c 6fa6 01bd
00000270: d059 d8bc 00c9 5bbc 86b8 2abd 0478 243b
00000280: 413b c03c 53ca ba3c 3229 643c fead 2abd
00000290: ece3 f43c b8f1 b5bb 9139 143d 02fb fd3c
000002a0: 09a6 143d f48b dabc bdb7 d8bb f639 233d
000002b0: bebc 0fbd c47c ae3b 9666 283d 6f55 0b3d
000002c0: 1f5a fabc 6e7b 053d 86da f8bc 65e9 923c
000002d0: 9c5a 0f3c 0595 873c 0940 b6bc cfde c43b
000002e0: 5f16 073c 4eab 97bc ba6e d63c e99e 223c
000002f0: 8193 043c 2a9b e0bc 4575 e8bc f72a 193d
00000300: 4750 e7bc 4fa8 d53c 7873 f5bc 0297 e43c
00000310: b286 fb3c e16f 5e3c c52b 45ba e5e7 c23c
00000320: adf9 67bc d07a 283d c44f 163c 6d46 a33c
00000330: c9c5 9cbc a05f 273d 6ae3 4abc aa36 b23b
00000340: 954d e73c a940 573c d58f 57bc 5eec c33b
00000350: 3fe0 033d 07e3 d03c 187e b4bc 480a c93c
00000360: 6045 0e3d 4f8c 023c 29ea 1fbd 53c4 65bc
00000370: 21a2 b63b 13af ce3c 3105 103d 9173 253d
00000380: 6229 943b 1ed3 983c d895 d23c b272 df3c
00000390: bb6f 1dbb 963f 113c 1b85 d53c 5025 f7bb
000003a0: 72f3 26bd 2d40 b93c e963 e1ba 0365 7dbb
000003b0: 412d 933c 8259 f6bb 894f f1bc ee92 23bc
000003c0: 2146 06bb c03b 873c 17ef 0fbd 65d7 2e3d
000003d0: 7861 03bd 4bd8 15bc 5c27 0d3c e896 183d
000003e0: 6847 fcbc c94e cc3c 423f 0ebd 4d65 313b
000003f0: 4812 b3bc f1da ec3a db8b df3c 3ec1 dc3c

conv2d_1/Conv2D_bias f4 [64]
0.0 0.0 0.0 0.0 0.0 0.0 0.0 0.0
0.0 0.0 0.0 0.0 0.0 0.0 0.0 0.0
0.0 0.0 0.0 0.0 0.0 0.0 0.0 0.0
0.0 0.0 0.0 0.0 0.0 0.0 0.0 0.0
0.0 0.0 0.0 0.0 0.0 0.0 0.0 0.0
0.0 0.0 0.0 0.0 0.0 0.0 0.0 0.0
0.0 0.0 0.0 0.0 0.0 0.0 0.0 0.0
0.0 0.0 0.0 0.0 0.0 0.0 0.0 0.0
00000000: 0000 0000 0000 0000 0000 0000 0000 0000
00000010: 0000 0000 0000 0000 0000 0000 0000 0000
00000020: 0000 0000 0000 0000 0000 0000 0000 0000
00000030: 0000 0000 0000 0000 0000 0000 0000 0000
00000040: 0000 0000 0000 0000 0000 0000 0000 0000
00000050: 0000 0000 0000 0000 0000 0000 0000 0000
00000060: 0000 0000 0000 0000 0000 0000 0000 0000
00000070: 0000 0000 0000 0000 0000 0000 0000 0000
00000080: 0000 0000 0000 0000 0000 0000 0000 0000
00000090: 0000 0000 0000 0000 0000 0000 0000 0000
000000a0: 0000 0000 0000 0000 0000 0000 0000 0000
000000b0: 0000 0000 0000 0000 0000 0000 0000 0000
000000c0: 0000 0000 0000 0000 0000 0000 0000 0000
000000d0: 0000 0000 0000 0000 0000 0000 0000 0000
000000e0: 0000 0000 0000 0000 0000 0000 0000 0000
000000f0: 0000 0000 0000 0000 0000 0000 0000 0000

conv2d_1/kernel f4 [64, 3, 3, 64]
-0.056775004 -0.0042946106 0.018721387 0.068589866 0.023138618 0.013754943 -0.049713954 -0.007021166
-0.033384573 0.06536736 0.00259523 0.013426105 0.05336146 0.017101219 0.06057325 -0.03180539
0.022166511 -0.0085737165 -0.010247763 -0.01365227 -0.060016613 0.05798319 0.052900948 0.03800963
-0.03907496 -0.026271537 -0.058693092 0.036366016 -0.06040217 0.058080133 0.008713993 0.04751852
0.009888326 0.017968621 0.053419232 -0.06076047 -0.025479857 -0.06336165 0.056558367 -0.053100526
-0.023788728 -0.00070829305 0.0699105 -0.025799647 0.071634814 -0.0083813425 -0.053542543 -0.021317838
-0.044116937 -0.02911827 -0.031586085 0.058789432 -0.00930648 -0.03033166 0.0694417 0.06687779
-0.07137479 0.02998846 -0.010374356 0.050416257 -0.05348445 0.01599475 -0.030268783 -0.047014438
-0.030379487 0.040624324 -0.020532914 -0.051216923 0.043005325 -0.02346909 0.0552392 -0.019163987
-0.018077364 -0.019421164 0.060580816 -0.06261032 -0.008221689 0.003440054 0.05765672 0.051025387
-0.052508783 0.03131733 0.016034314 -0.015480737 0.06225907 0.015949257 0.01088893 0.04344337
-0.030398972 0.045598887 -0.03939066 -0.038084954 -0.04599339 0.013112071 0.06479878 -0.007508794
0.009472538 0.06931713 0.039461378 -0.030857688 0.04773819 0.020884728 0.0024485344 0.043067444
-0.0044794865 0.035523515 -0.044689212 -0.042152297 0.042812984 -0.07157592 0.0071602436 0.038824562
-0.054581136 -0.06884893 -0.057551175 0.06384077 -0.05593565 0.046437282 0.05463033 -0.018773083
0.008304446 0.06891214 0.045768324 0.055284314 0.045154925 0.02905225 -0.03343008 -0.0073248115
0.065420024 -0.04964967 -0.033770736 -0.02177229 0.01631617 -0.017745841 0.0147186555 -0.009660392
0.023534149 -0.06373696 -0.048153877 -0.03759033 0.048007607 0.04588241 0.013408507 -0.040206093
0.002369322 -0.06691511 0.011500347 0.017440893 0.025623575 -0.047843162 -0.06526271 0.048908032
-0.056210592 -0.05370725 -0.042738 0.036069714 0.04702723 -0.034798216 0.012488016 -0.017795887
-0.05844489 -0.031614564 -0.061877567 -0.0687573 -0.048715003 0.03616697 0.01588846 -0.032463755
-0.019126305 0.0018322697 -0.014488444 -0.009890564 -0.029950162 0.04645529 -0.050672043 -0.06200093
-0.06744788 0.013906211 0.054238684 0.045722555 -0.014052892 0.068760104 0.029821003 -0.004714442
0.049946673 0.05768785 -0.025099888 0.019643702 0.06451672 -0.052605245 0.0028690065 -0.024992796
0.04308851 0.06639427 0.032525495 -0.0028551775 0.027503071 -0.020695262 -0.04243422 -0.038653597
-0.0719208 -0.0337373 -0.017916959 0.05937154 0.021949928 0.01999223 -0.0014137414 -0.021146754
0.0039982107 0.033039432 0.07024401 -0.029615046 0.00857041 -0.07094547 -0.05224012 0.0029451728
0.055637818 -0.06588131 0.067268126 -0.070965976 0.0391933 -0.00071728136 -0.010428633 0.031722054
-0.06832337 0.010450265 0.06959412 0.024974983 -0.044308003 -0.05994679 -0.058810037 -0.02709036
-0.03189167 0.050409675 -0.014135045 -0.06710676 -0.0122645805 0.0105642695 0.06550014 0.041392535
0.06427187 0.026088452 0.041085687 0.010732278 -0.035102222 -0.058091443 -0.017206227 0.031384494
0.0555902 -0.045869183 0.055107005 0.021774577 0.07054589 -0.010066652 0.030459333 -0.004933082
00000000: e88c 68bd ceb9 8cbb 985d 993c d878 8c3d
00000010: 338d bd3c 6a5c 613c dca0 4bbd cf11 e6bb
00000020: 43be 08bd 53df 853d bc14 2a3b 2af9 5b3c
00000030: 8c91 5a3d db17 8c3c a81b 783d 5e46 02bd
00000040: 8b96 b53c c678 0cbc 3ce6 27bc c5ad 5fbc
00000050: fbd3 75bd c87f 6d3d aaae 583d fcaf 1b3d
00000060: 110d 20bd 6837 d7bc 2b68 70bd 88f4 143d
00000070: 4468 77bd 6fe5 6d3d 23c5 0e3c c8a2 423d
00000080: a502 223c ee32 933c 20ce 5a3d f8df 78bd
00000090: 22bb d0bc c1c3 81bd bfa9 673d f07f 59bd
000000a0: 94e0 c2bc beac 39ba 3c2d 8f3d c859 d3bc
000000b0: 46b5 923d e651 09bc 6d4f 5bbd bfa2 aebc
000000c0: f6b3 34bd 7089 eebc 6960 01bd 30cd 703d
000000d0: 357a 18bc 1a7a f8bc 7337 8e3d 39f7 883d
000000e0: f22c 92bd 5caa f53c 34f9 29bc 4781 4e3d
000000f0: 8312 5bbd 6c07 833c 3df6 f7bc 3692 40bd
00000100: 67de f8bc b165 263d a434 a8bc d6c8 51bd
00000110: 5a26 303d 4042 c0bc 8042 623d cbfd 9cbc
00000120: fb16 94bc 2219 9fbc 9723 783d d739 80bd
00000130: 43b4 06bc 8772 613b 7429 6c3d ffff 503d
00000140: 7313 57bd 9a46 003d 655a 833c eba2 7dbc
00000150: 5e03 7f3d 04a8 823c 7c67 323c adf1 313d
00000160: 4407 f9bc e6c5 3a3d 1a58 21bd f8fe 1bbd
00000170: 9163 3cbd 03d4 563c 39b5 843d 540c f6bb
00000180: b432 1b3c 24f6 8d3d 41a2 213d 43c9 fcbc
00000190: 1f89 433d 7316 ab3c 9777 203b 7d67 303d
000001a0: a8c8 92bb 1b81 113d 090c 37bd e3a7 2cbd
000001b0: ab5c 2f3d 6596 92bd 7aa0 ea3b 8106 1f3d
000001c0: 7890 5fbd ab00 8dbd c8ba 6bbd f3be 823d
000001d0: c81c 65bd 0535 3e3d 0ec4 5f3d 02ca 99bc
000001e0: 5f0f 083c cf21 8d3d 9177 3b3d ce71 623d
000001f0: 5ff4 383d fcfe ed3c fbed 08bd f904 f0bb
00000200: effa 853d 745d 4bbd 2f53 0abd cd5b b2bc
00000210: 7da9 853c ba5f 91bc 8426 713c 9f46 1ebc
00000220: b0ca c03c 8688 82bd 003d 45bd 51f8 19bd
00000230: a0a3 443d 32ef 3b3d 5baf 5b3c 25af 24bd
00000240: a146 1b3b ca0a 89bd f46b 3c3c 34e0 8e3c
00000250: 88e8 d13c 31f7 43bd 75a8 85bd ca53 483d
00000260: 143d 66bd 22fc 5bbd 0b0e 2fbd d6bd 133d
00000270: a09f 403d 9388 0ebd 899a 4c3c aec8 91bc
00000280: e963 6fbd 467e 01bd 5573 7dbd a1d0 8cbd
00000290: 6289 47bd d123 143d 8428 823c b7f8 04bd
000002a0: c5ae 9cbc c528 f03a f060 6dbc 080c 22bc
000002b0: 0b5a f5bc e747 3e3d 7d8d 4fbd b0f4 7dbd
000002c0: 1d22 8abd e0d6 633c 6229 5e3d 9347 3b3d
000002d0: 1a3e 66bc 19d2 8c3d 2d4b f43c 9b7b 9abb
000002e0: e294 4c3d 184a 6c3d 489e cdbc d4eb a03c
000002f0: 5821 843d 9978 57bd f105 3c3b b1bd ccbc
00000300: 947d 303d b8f9 873d 7439 053d ee1d 3bbb
00000310: 1f4e e13c 1c89 a9bc 81cf 2dbd 3c53 1ebd
00000320: 364b 93bd 2030 0abd 96c6 92bc 922f 733d
00000330: 56d0 b33c bfc6 a33c 4a4d b9ba f53b adbc
00000340: 6c03 833b 5b54 073d 17dc 8f3d 419b f2bc
00000350: e86a 0c3c dc4b 91bd bcf9 55bd cd03 413b
00000360: 7be4 633d c8ec 86bd dfc3 893d 9c56 91bd
00000370: 2789 203d f007 3cba dbdc 2abc fcee 013d
00000380: 1fed 8bbd 9737 2b3c 5d87 8e3d 5698 cc3c
00000390: 4f7c 35bd c48a 75bd cbe2 70bd 9aec ddbc
000003a0: d7a0 02bd 607a 4e3d ad96 67bc 456f 89bd
000003b0: 61f1 48bc c215 2d3c f024 863d 388b 293d
000003c0: f8a0 833d 73b7 d53c 7749 283d 70d6 2f3c
000003d0: 59c7 0fbd 4bf1 6dbd 13f4 8cbc 078d 003d
000003e0: 8db2 633d 53e1 3bbd e2b7 613d 9960 b23c
000003f0: 5d7a 903d 99ee 24bc da85 f93c b1a5 a1bb

dense/MatMul_bias f4 [10]
0.0 0.0 0.0 0.0 0.0 0.0 0.0 0.0
0.0 0.0
00000000: 0000 0000 0000 0000 0000 0000 0000 0000
00000010: 0000 0000 0000 0000 0000 0000 0000 0000
00000020: 0000 0000 0000 0000

dense/kernel/transpose f4 [10, 64]
-0.1584404 0.20956641 0.010360628 -0.030572623 0.12986019 0.024180055 -0.25478822 0.039614618
0.13685629 0.20635623 0.18720457 0.27279577 0.055247456 -0.134585 -0.23513216 -0.05534324
0.024615556 -0.05913335 0.21409598 0.092000216 -0.16056369 0.16844648 -0.13465485 0.060154617
0.036587328 -0.15320534 0.036690444 -0.13065284 -0.20550531 0.2036761 -0.09905572 -0.0054683387
0.23184577 -0.25287443 0.23904434 -0.00329718 0.019011438 0.058166057 0.22407463 -0.19918483
-0.017043084 -0.24685647 0.26506904 -0.11223978 -0.10942319 -0.075124145 0.07898134 0.18030897
0.13830239 0.18667546 0.26218912 0.10330185 0.013338566 -0.130887 -0.055589736 0.063155025
-0.20436035 -0.23103973 -0.13447222 0.11558318 -0.0339036 -0.11109306 -0.25461212 -0.07641119
-0.28002504 0.22501925 -0.0892746 0.10396913 0.26189235 -0.022334754 -0.16635409 -0.011570483
-0.17571904 0.00015029311 0.21996817 -0.026281089 -0.012731969 -0.14011332 0.18827125 0.23661932
-0.20804694 -0.048109382 0.057848275 0.10812202 0.14891183 0.10015252 -0.18183605 -0.09681511
0.19570518 0.28451845 -0.17353037 -0.16869809 0.0789814 0.08066884 0.113292724 0.25853923
-0.19130522 -0.035458326 -0.18329974 0.19229552 0.2131291 -0.059510738 -0.06323168 -0.16523555
0.008073509 0.23057118 -0.0760012 -0.026557654 -0.15998025 0.18190095 0.11703336 -0.051721215
-0.27993894 -0.10388677 -0.23335537 0.18730056 0.104545444 -0.12203562 0.1471085 0.08101052
-0.24877548 0.11736819 0.009649754 0.1931884 0.0016655922 0.011722326 0.1304574 0.20989853
-0.16215867 0.2296761 -0.110929996 -0.06318036 0.07144654 0.21515656 0.13901931 -0.03513579
0.08197293 0.18082872 0.16053748 0.2006796 0.03988999 -0.06132154 0.21645185 -0.0670905
0.08309847 -0.19203061 -0.15292114 0.032258034 0.0033536553 -0.15238184 0.20166156 0.051525563
0.20557725 -0.19448888 0.27811787 0.22620311 0.14936954 -0.1335782 -0.14458804 -0.08864486
-0.28439885 0.27314612 -0.11885211 0.025027364 0.124360144 -0.104914606 -0.06512591 0.06525919
-0.14676714 0.086523 -0.25911996 -0.11994587 -0.25554925 0.03052631 -0.06654459 -0.22176391
0.061223656 -0.14981848 0.06872973 0.1251711 0.01101011 0.25228986 -0.008806497 0.19982141
-0.2645405 -0.23339453 -0.26822034 0.25655237 0.20603451 0.14839274 -0.052810505 0.17121169
-0.1856003 -0.2383374 -0.019262373 -0.111713976 0.012784392 0.07065886 -0.10380496 -0.146752
0.16586426 0.10604149 0.13403392 0.027784824 -0.15326303 0.26432773 0.10746044 -0.15584248
-0.19770852 0.23638871 -0.22003993 -0.09206362 0.20277983 -0.17222051 -0.19881421 -0.09385881
0.20310801 -0.024241626 0.24402127 -0.12277025 0.22210243 0.046553016 0.22508934 0.049435318
0.058930367 0.11703187 0.27645078 0.16474646 0.131286 0.105235666 -0.019208878 -0.27506533
-0.25152418 -0.026322842 -0.1361755 -0.089542285 0.08331686 -0.12257372 -0.13426286 0.10762489
0.13520542 0.2727137 -0.13440318 0.26443222 0.09355214 -0.23711506 -0.116393566 0.2572359
-0.13564439 -0.1989528 0.10282716 0.094136536 0.10553911 0.065633535 -0.1752872 -0.035419554
00000000: 333e 22be 9498 563e a0bf 293c 7073 fabc
00000010: 12fa 043e 4015 c63c 9a73 82be f042 223d
00000020: 0e24 0c3e 0c4f 533e 8eb2 3f3e e3ab 8b3e
00000030: 284b 623d a6d0 09be 7cc6 70be 98af 62bd
00000040: 90a6 c93c d035 72bd fa3b 5b3e 9c6a bc3d
00000050: cf6a 24be 3c7d 2c3e f6e2 09be b064 763d
00000060: 98dc 153d dce1 1cbe b848 163d dcc9 05be
00000070: fc6f 52be 7890 503e badd cabd c02f b3bb
00000080: fa68 6d3e c278 81be 0ac8 743e 8015 58bb
00000090: e0bd 9b3c 883f 6e3d d273 653e 1cf7 4bbe
000000a0: f09d 8bbc f1c7 7cbe 21b7 873e f8dd e5bd
000000b0: 4419 e0bd b0da 99bd f8c0 a13d eaa2 383e
000000c0: 249f 0d3e da27 3f3e a73d 863e ec8f d33d
000000d0: 008a 5a3c 3e07 06be 10b2 63bd 6c57 813d
000000e0: d743 51be ae95 6cbe 16b3 09be e0b6 ec3d
000000f0: 80de 0abd c284 e3bd 855c 82be 787d 9cbd
00000100: 715f 8fbe 726b 663e 9ad5 b6bd c4ed d43d
00000110: c116 863e 60f7 b6bc ba58 2abe 2092 3dbc
00000120: b1ef 33be 0098 1d39 563f 613e 704b d7bc
00000130: c099 50bc de79 0fbe 2eca 403e 564c 723e
00000140: 420a 55be 580e 45bd 50f2 6c3d 146f dd3d
00000150: 587c 183e c41c cd3d 3b33 3abe 0047 c6bd
00000160: f066 483e 67ac 913e f2b1 31be 31bf 2cbe
00000170: 00c1 a13d b435 a53d 0406 e83d 415f 843e
00000180: 84e5 43be c03c 11bd edb2 3bbe 1ee9 443e
00000190: 843e 5a3e 88c1 73bd 9c7f 81bd 8233 29be
000001a0: c046 043c da1a 6c3e 84a6 9bbd 708f d9bc
000001b0: ddd1 23be 3e44 3a3e 30af ef3d a0d9 53bd
000001c0: 2854 8fbe 96c2 d4bd b6f4 6ebe b8cb 3f3e
000001d0: ec1b d63d d0ed f9bd 9ca3 163e d8e8 a53d
000001e0: 00bf 7ebe bc5e f03d 001a 1e3c 2ed3 453e
000001f0: 0050 da3a 000f 403c a096 053e a4ef 563e
00000200: ec0c 26be 3630 6b3e 442f e3bd b464 81bd
00000210: 9052 923d 0052 5c3e 145b 0e3e 8cea 0fbd
00000220: 6ce1 a73d 2a2b 393e f063 243e f47e 4d3e
00000230: b063 233d 4c2c 7bbd 8ea5 5d3e be66 89bd
00000240: 882f aa3d aca3 44be 5c97 1cbe 0021 043d
00000250: 00c9 5b3b fc09 1cbe 5e80 4e3e 780c 533d
00000260: d882 523e 1828 47be 7765 8e3e caa1 673e
00000270: 54f4 183e b9c8 08be e30e 14be 708b b5bd
00000280: ba9c 91be cfd9 8b3e bc68 f3bd 3006 cd3c
00000290: 88b0 fe3d 78dd d6bd bc60 85bd 9ca6 853d
000002a0: 204a 16be f832 b13d 5fab 84be 2ea6 f5bd
000002b0: 5ad7 82be 5012 fa3c 8848 88bd 1416 63be
000002c0: a8c5 7a3d 046a 19be 2cc2 8c3d da2c 003e
000002d0: c063 343c 232c 813e 2049 10bc fc9d 4c3e
000002e0: da71 87be fafe 6ebe 2d54 89be d55a 833e
000002f0: b6fa 523e 44f4 173e d44f 58bd 1e52 2f3e
00000300: 010e 3ebe b80e 74be 20cc 9dbc 4cca e4bd
00000310: a075 513c 98b5 903d b297 d4bd 2846 16be
00000320: 52d8 293e 482c d93d 3040 093e 009d e33c
00000330: fcf0 1cbe f755 873e 3814 dc3d 2c95 1fbe
00000340: 1a74 4abe e20f 723e 2652 61be da8b bcbd
00000350: 84a5 4f3e 935a 30be f495 4bbe 0c39 c0bd
00000360: 8cfb 4f3e 6096 c6bc b6e0 793e f86e fbbd
00000370: d26e 633e 60ae 3e3d d27d 663e b07c 4a3d
00000380: f860 713d 68ae ef3d f58a 8d3e 4cb3 283e
00000390: d66f 063e cc85 d73d f05b 9dbc 5dd5 8cbe
000003a0: c7c7 80be 00a3 d7bc 9771 0bbe f261 b7bd
000003b0: 08a2 aa3d ee07 fbbd 347c 09be 706a dc3d
000003c0: 4a73 0a3e 21a1 8b3e fda0 09be a963 873e
000003d0: 4498 bf3d 4ace 72be c05f eebd 6db4 833e
000003e0: 5de6 0abe 48ba 4bbe 0c97 d23d a8ca c03d
000003f0: e424 d83d e06a 863d 7d7e 33be 1814 11bd
