examples/example_model.tflite (tflite, 485920 bytes, 7 tensors)

conv2d/kernel f4 [64, 7, 7, 3]
00000000: d9e5 df3b 20e3 07bd f955 4dbb 5155 8ebc
00000010: e1db b9bc b395 c33c b332 c6bb 2014 a53b
00000020: 04c7 c2bc 71b7 153d 6cb6 ccbc 3948 6f3c
00000030: a5bd 10bd 310b 07bd a311 9a3c bdba 2c3d
00000040: baa2 81bc e26b 0ebc 0a0f 6e3b a7ee a23b
00000050: 3dfb 163d ba77 64bc 5660 3bbb 83c6 073d
00000060: f12d 063d 489b e3bb c545 94bc 2d1d 9cbc
00000070: 914f 74bc 0fef c33c 013e 97bc 493c f93c
00000080: de71 09bc ab53 f0bc d37a 06bd e14b 903c
00000090: c895 343c 853b 1e3c 0bf1 0cbd 8c9e 9b3c
000000a0: 8aea 2dbd c971 2b3d aed2 1d3b 24a3 113d
000000b0: 05d5 83bc 1db2 ee3b a033 903c 31bf 8fbc
000000c0: 25b5 293c decd c9bc 55dc d1bc 1016 a83c
000000d0: 6a9f edbc 0730 183a 1b50 a23b 3d26 873c
000000e0: 5c94 fabc 5cba 8e3b c4ac 86bb 4b2a 75bc
000000f0: 101d 973c 6b77 1a3d 4fff 843c bca0 9ebb
00000100: 777b 7fbc c131 a93b 2a9a a8bc 1e59 663c
00000110: 1db0 03bd 96da 163c e67c e83c 1d8f 17bd
00000120: 2c6f b3bc 5dd8 9dbc a9ff afbc 3899 683c
00000130: bb1d 2f3c 9a15 173d 3366 c53c f6fe f43b
00000140: fc7d 13bc 6a4d ed3b 3bfb c23c 71b7 09bc
00000150: ed15 063d a383 10bd 7a0e 14bd 0c82 583b
00000160: e075 9539 5034 e7bc 2ae1 a83c c7dd 5ebc
00000170: 0388 e03c 5209 8f3b a52e 933c 2e09 d63c
00000180: c334 f1bc 3e8f 293d c4aa 8fbc e02f 2a3d
00000190: 8132 53bc 1898 eebc 9891 52bc 85be 373c
000001a0: 41dc c2bc ac4d 9abc 41a7 833c e375 203d
000001b0: 100b 0abd 2c8a 663c ce4b c63c 2651 b53c
000001c0: d459 54b9 a77d 0ebd d75c af3b faba 26bc
000001d0: 0abf a2bc 72eb b13c 30e4 94bc 129c c83c
000001e0: dbea 85bc 7a57 2cbd 4e66 903c c76a aa3c
000001f0: b3bf cebb accd 75bb 4a0d 103d 8e09 143d
00000200: ab77 9dbc 891f 243d 2c8e 8bbb 8b23 013d
00000210: d436 9d3c 9f9d 1abd 84c5 8d3c 608a c1bc
00000220: 6ad4 a23a 4bec 13bd f10d 90bc 514f 9a3c
00000230: 9a46 a23c 6533 203d a431 06bc 30e7 eebc
00000240: d654 8b3c 60fd 48bc 60bd cb3c fa3c d7bc
00000250: 2887 9bbc a6d3 29bd 85a9 12bd c0f2 dfbc
00000260: 1047 00bd 1a71 fcbb 9720 9abb 3361 3f3c
00000270: 31c3 1ebd 76cf 933b ec52 7abc a21b 373c
00000280: 06f1 2e3d a472 c9bc d726 8dbc eb3d c73c
00000290: 1690 5dbb bd54 1bbd 0ca2 03bc 32ce 6d3c
000002a0: 2dda b03c 6185 0d3d 2e13 2ebc 31a8 8abc
000002b0: 90f7 febc 2881 8abc 8146 be3c 996c 743b
000002c0: 26d2 263d 2e78 b43c 7f6d cc3b 5f28 1fbd
000002d0: 35f7 b2bc 9548 e73c 478f f4bc e0c7 44bc
000002e0: 65d5 d3bb eb4c 02bd 5f67 003d aa53 d03c
000002f0: f84c 56bc c267 b1bc b23b b43c 8476 e1bc
00000300: fa38 fbba 338b 11bd e987 e73c c44f c6bc
00000310: dc88 5c3c c3e0 053d 9acd bb3c 94ff b83b
00000320: 8ad1 e0bc 1959 e23b dd18 81bc 71ea 3f39
00000330: db27 203d 2a40 fabc a89e ad3b 3604 bd3c
00000340: efb0 4cbc 8780 0bbd 40db f53c 896c b0bc
00000350: 1e59 05bd 6b64 d7bc ce24 e4ba 7a9b a7bc
00000360: 2a48 9a3b d898 44b9 3400 29bd c70e 143d
00000370: 2609 b6bc f5c1 0a3d 616e 95bb a12b 10bc
00000380: ebde 12bd d5ab 03bd 7041 aabc 9538 a7bc
00000390: 3f75 de3c b6d5 cbbc e7ff 5ebb b6ca 89bb
000003a0: 30a5 d43c 18f0 bf3b 5c3b 943c 3be2 d53c
000003b0: 3ee2 9a3b 215e 973c 4c0f 123d d85a a73c
000003c0: 874f dcbb f0de cf3c 0616 073d 3e0a aab8
000003d0: 104e 87bc 34c4 12bc 010c 3a3c 9539 b63c
000003e0: 16d3 e1bc ea79 dbba e89b 16bd 8830 083d
000003f0: 0590 8d3c b3d2 cdbc 6d01 aa3c 58c5 0fbd
0.00683282 -0.033175588 -0.0031331761 -0.017374666 -0.022687854 0.023875093 -0.0060485243 0.0050377995
-0.023776539 0.036551896 -0.02498933 0.014604622 -0.03533711 -0.032969657 0.018807238 0.042170275
-0.015824664 -0.008692713 0.0036324882 0.004972297 0.036860693 -0.013944561 -0.0028591356 0.0331483
0.032758657 -0.006946001 -0.018099675 -0.01905688 -0.014911548 0.023917703 -0.018462183 0.030424254
-0.008388964 -0.029336771 -0.032831978 0.017614307 0.011022039 0.009657745 -0.034409564 0.0189965
-0.042460002 0.04185656 0.0024081874 0.035555974 -0.016092787 0.0072844164 0.017602742 -0.017547222
0.01035813 -0.024634298 -0.025617758 0.020518333 -0.029006679 0.00058054965 0.004953397 0.016497726
-0.030588321 0.004355712 -0.0041099507 -0.014963697 0.018446475 0.037711542 0.016235022 -0.0048409384
-0.015593401 0.005163402 -0.020581324 0.014059333 -0.032150377 0.009207388 0.028379869 -0.037001718
-0.021903597 -0.01926821 -0.021484213 0.014196686 0.010688241 0.036885835 0.024096584 0.007476683
-0.009002205 0.0072418945 0.023801437 -0.008405552 0.032735754 -0.03528179 -0.03614662 0.0033036498
0.00028507318 -0.028223187 0.02061518 -0.0136026805 0.027408605 0.0043651247 0.017966578 0.026127424
-0.029444104 0.041396372 -0.017537482 0.041549563 -0.012890459 -0.029125258 -0.012852095 0.011214857
-0.023786666 -0.018835865 0.016070964 0.039174926 -0.033701956 0.014071029 0.024206068 0.022133421
-0.00020251359 -0.0347878 0.0053516435 -0.010176415 -0.019866485 0.021718714 -0.018175215 0.024488483
-0.01634734 -0.04207561 0.017626908 0.020802869 -0.0063094734 -0.0037506623 0.035168923 0.036141925
-0.019222101 0.040069137 -0.0042588916 0.031528037 0.019191183 -0.037747975 0.017306097 -0.023625553
0.0012422923 -0.03611402 -0.017584773 0.01883665 0.019809056 0.039111514 -0.008190546 -0.029162973
0.017008226 -0.012267441 0.024870574 -0.026274193 -0.018985346 -0.04146161 -0.035806198 -0.027337432
-0.03131777 -0.0077039124 -0.004703592 0.011680889 -0.038760368 0.0045108153 -0.015278559 0.011176022
0.042710327 -0.024590798 -0.017230434 0.024321517 -0.0033807806 -0.03792261 -0.00803424 0.014514493
0.02158841 0.03455103 -0.01062469 -0.016925903 -0.031123906 -0.01690729 0.023226978 0.0037296175
0.040727757 0.022029962 0.006238639 -0.03885686 -0.021846393 0.028232852 -0.029853476 -0.012010545
-0.0064646476 -0.031811636 0.031348582 0.02543052 -0.013079874 -0.02165592 0.022001121 -0.027522333
-0.0019166761 -0.03553314 0.02826305 -0.024207957 0.013460364 0.032685053 0.022925187 0.0056457017
-0.027443666 0.006907594 -0.015758926 0.00018302516 0.03910051 -0.030548174 0.0052984543 0.023073297
-0.012493356 -0.03405812 0.030011773 -0.021536129 -0.032555692 -0.026293 -0.0017405988 -0.02045988
0.0047083097 -0.00018748955 -0.04125996 0.036146905 -0.02222116 0.033876378 -0.0045602773 -0.008799464
-0.035857122 -0.032146294 -0.020783156 -0.020412723 0.027155517 -0.024882179 -0.0034027041 -0.004205073
0.025957674 0.005857479 0.018094711 0.026108852 0.004726677 0.018477501 0.03565912 0.02042906
-0.0067233476 0.02537486 0.032979988 -8.1081394e-05 -0.016516715 -0.008957911 0.011355401 0.022244254
-0.027566474 -0.0016744707 -0.036769778 0.033249408 0.017280588 -0.025124883 0.020752633 -0.03510031

conv2d_1/kernel f4 [64, 3, 3, 64]
00000000: f008 2f3d 78cc 46bd ae93 9fbc e06c 46bd
00000010: 9a7c 84bd 9665 103d 38f7 633d 9567 193d
00000020: 0f82 843d 2a76 8dbc e1a5 5a3d f036 34bd
00000030: 26ea 0ebc 680f 0f3d 0413 dfbb 8050 6abc
00000040: 3498 0abc 401a e33b dd9c e6bb 4569 483d
00000050: 93a4 013d 70f1 223d af22 8f3d cbe3 62bd
00000060: 3deb c4bb 9686 87bd e389 0dba ea21 8bbd
00000070: 9064 933c 3382 3cbd bea5 adbc af7c 4dbd
00000080: 3940 a4bc 1484 8dbb 6852 a0bc a5e5 82bd
00000090: c804 8ebd 586a 043d 142d 093d 81f6 7cbb
000000a0: 881e abbc fd4c 133d e8e7 763d c6bb 563d
000000b0: fb57 203c c178 1dbc 06e6 6e3d b4a4 cc3c
000000c0: ef9e a43a dcf9 233c 8df9 8d3d 3d23 51bd
000000d0: 2976 dd3c 3ffc 823d ea09 9a3c 6a05 3d3d
000000e0: b77b 32bd 5364 333c a90d 323d 8e76 153d
000000f0: 8634 42bd 5fcb 6bbd 6484 1d3d 8ef1 c73c
00000100: ba47 5cbd 503e 5dbb f435 10bc 5547 ea3c
00000110: 79b1 20bd 6837 833d 2e36 6c3d 6559 623d
00000120: 46a8 8f3d 22b1 b23b 116f 343c 2cf8 e0bc
00000130: 3a65 0d3d 30e9 18bd ed99 2ebd e84d 72bd
00000140: eb74 6cbd 6389 e23b fabb bb3a bb20 85bd
00000150: 1a26 2f3d 5fab 253d f91b a5bc 0a47 efbc
00000160: 7ca6 d13b 9c9b 66bd d95d 81bd 07b7 4a3c
00000170: 0d52 e1bc 96ca d3bb 13fa 6ebc 7263 643d
00000180: 041e 35bd 50d0 8e3d 2a9f 50bd b778 3cbd
00000190: cf22 39bd 198e 08bd e789 d23c 2da7 33bd
000001a0: aa14 e7bc 7222 36bc c81c c4bb ad7f 8dbd
000001b0: 1a79 f03c 8ec8 873d 82dc eabb 3eec fd3c
000001c0: 896c 7dbd 8a79 19bd 1538 d8bb f9b6 883c
000001d0: 2a33 083c 89b4 ce3c a453 7f3d bbce 213c
000001e0: 7021 813d 1070 4d3d 6d3a 893d 5c48 33bd
000001f0: 6b48 79bd ba87 8dbc db34 63bd 435f 80bb
00000200: f997 453d 3c34 ddbc 6a66 00bd 5b02 7ebd
00000210: a20e ed3c 69d2 943c c5d8 7cbd 3ffa 693d
00000220: f65c a63c 4f34 cc3b 7e50 0b3d 67c2 733d
00000230: 9595 3dbd 9766 cdbc 36d4 923b 0fa7 623d
00000240: c8f0 4fbd e7ff 49bb 88b6 023d 7710 f4bc
00000250: ffe6 42bc fc09 02bc 03c0 3e3d 03ea 823d
00000260: 506d 413c 7413 1e3d 84c6 8c3c be00 cebc
00000270: 9e5e 4638 dbd5 1abd b700 15bc 07ef acbc
00000280: 2339 5a3d dfff 533c a2d8 823d d1f3 0e3d
00000290: d7cb 2f3d cb87 28bd 1c89 273d ff69 7dbd
000002a0: ecb0 40bd 98ff 423d 5b4a a33b 4575 f23c
000002b0: caae 203d fcdc b3b8 ea9e 87bd 4232 683c
000002c0: 9e7e 23bd 9cbb 23bc 2f00 343c 5261 88bc
000002d0: 59d1 18bd 8b5f 34bc 9de2 483d 054f df3c
000002e0: 95fd 94bc dea1 c0bc 88a3 b73c cf69 d83b
000002f0: 2bd9 85bc fcb8 b93c 4695 09bd 86b9 8c3d
00000300: 2aed 9e3b 3a1f 243d 2d79 323d 0110 90bd
00000310: 0c15 833d 64ef 5fbd c085 f13c bcf2 0fbc
00000320: 5fea 0d3d 1987 0dbd b085 10bd 057b 0b3d
00000330: 25e1 d1b9 a9d4 77bd bfa5 d0bc 1382 2c3d
00000340: 8fe6 503d 3eb1 80bd 18a6 febc 5a07 5a3c
00000350: 22cd 623d ef89 483c c0fe 42bd 3b3f 59bd
00000360: 370e 383d a57e 7cbd fbfa 9dbc 06b0 3cbd
00000370: e0bb 8bbd e089 663d c199 8d3d 9bcf 91bc
00000380: dd29 9b3c 66d0 0dbd 5dca 08bd 9dad 48bd
00000390: 17a3 99bb 4a99 24bd b02d 433d 56d4 d4bc
000003a0: f7a1 8f3d b824 37bd d2ba 663c 7fdb 2fbd
000003b0: ec53 7f3d f470 8e3d 0b8a edbb a888 06bd
000003c0: 4bcc 17bc f8f0 46bd 15bc 173d 3f08 8bbd
000003d0: 0722 7ebc ba83 453d 46a2 1dbd f540 76bd
000003e0: 37b7 52bd e210 be3c f7d0 12bb 9f98 253d
000003f0: 8a04 6f3c dbae 853d 5437 dabb 6705 463d
0.042733133 -0.04853484 -0.019479599 -0.048443675 -0.06469078 0.03525313 0.055655688 0.0374523
0.06470119 -0.01726826 0.05338085 -0.043997705 -0.0087228175 0.034926802 -0.0068076868 -0.014301419
-0.00845914 0.0069306195 -0.0070377425 0.048928518 0.03165109 0.039781034 0.06989037 -0.05539302
-0.006009488 -0.06617467 -0.000539927 -0.06793578 0.017992288 -0.046022605 -0.021197196 -0.050167736
-0.020050155 -0.0043187235 -0.019570544 -0.063914575 -0.06934506 0.03232798 0.033490255 -0.0038599076
-0.020888582 0.035962094 0.060279757 0.05242517 0.009786601 -0.0096113095 0.058324836 0.02498088
0.0012559573 0.010008302 0.06932364 -0.051058996 0.027033882 0.063957684 0.018803556 0.04614774
-0.043575015 0.010949212 0.04347006 0.036490016 -0.04741337 -0.057566997 0.038456336 0.024407174
-0.05377934 -0.0033759065 -0.008801926 0.028598467 -0.03923175 0.06407052 0.057668857 0.055261035
0.070145175 0.005453245 0.011012808 -0.027462088 0.034520365 -0.03733176 -0.042627264 -0.05915633
-0.05772869 0.0069133504 0.0014322989 -0.065003835 0.042760946 0.040446635 -0.02015494 -0.029208679
0.0063980203 -0.056300744 -0.06316728 0.012372739 -0.027504945 -0.006463359 -0.0145859895 0.0557589
-0.04421808 0.06973326 -0.05093304 -0.04601356 -0.04519921 -0.03333864 0.025700523 -0.043860603
-0.028208096 -0.011116611 -0.0059848763 -0.06909118 0.02935462 0.0663005 -0.0071674 0.030996438
-0.061871085 -0.037469424 -0.0065984824 0.01668881 0.00831298 0.02523257 0.062335625 0.009875949
0.06305206 0.0501557 0.06700597 -0.04377018 -0.06086008 -0.017276634 -0.05547033 -0.003917606
0.048240636 -0.027002446 -0.03134767 -0.062013965 0.028937642 0.018166738 -0.061730165 0.05712342
0.020308 0.0062318216 0.03401231 0.05951157 -0.04628523 -0.025073333 0.004480864 0.0553351
-0.050766736 -0.0030822696 0.031912357 -0.029793007 -0.011895894 -0.007936951 0.046569835 0.063922904
0.011805847 0.03859277 0.017184503 -0.025146838 4.7294998e-05 -0.037801605 -0.009094409 -0.02111007
0.053277146 0.012939422 0.06388976 0.03490049 0.042919006 -0.041145127 0.040902242 -0.061868664
-0.047043726 0.047607034 0.004983229 0.029596934 0.03922919 -8.576547e-05 -0.06622107 0.014172139
-0.039915673 -0.00999346 0.010986372 -0.016647968 -0.037309024 -0.011009107 0.04904424 0.02725936
-0.018187324 -0.023514684 0.022416845 0.0066044102 -0.016338905 0.022671215 -0.033589624 0.06871323
0.0048500495 0.040068842 0.043572593 -0.070343025 0.06400499 -0.05467166 0.029482722 -0.0087859
0.03464734 -0.034552667 -0.035283744 0.034052867 -0.00040031332 -0.060505543 -0.025469659 0.042116236
0.051001128 -0.06283806 -0.031085059 0.013307417 0.05537141 0.012239917 -0.04760623 -0.053038817
0.04493543 -0.061644215 -0.019284716 -0.046066307 -0.06822944 0.05628383 0.06914092 -0.01779919
0.01894086 -0.034622572 -0.033396114 -0.048993696 -0.0046886313 -0.04018525 0.047650993 -0.025980156
0.07013314 -0.044712752 0.014082627 -0.042933937 0.062335894 0.06955138 -0.007249122 -0.03284517
-0.009265016 -0.04856965 0.037044603 -0.06788682 -0.015511042 0.048221327 -0.038484834 -0.06012054
-0.05144426 0.02320141 -0.0022402385 0.040428754 0.014588485 0.06527492 -0.0066594277 0.048344996

conv2d_2/Conv2D_bias f4 [64]
00000000: 0000 0000 0000 0000 0000 0000 0000 0000
00000010: 0000 0000 0000 0000 0000 0000 0000 0000
00000020: 0000 0000 0000 0000 0000 0000 0000 0000
00000030: 0000 0000 0000 0000 0000 0000 0000 0000
00000040: 0000 0000 0000 0000 0000 0000 0000 0000
00000050: 0000 0000 0000 0000 0000 0000 0000 0000
00000060: 0000 0000 0000 0000 0000 0000 0000 0000
00000070: 0000 0000 0000 0000 0000 0000 0000 0000
00000080: 0000 0000 0000 0000 0000 0000 0000 0000
00000090: 0000 0000 0000 0000 0000 0000 0000 0000
000000a0: 0000 0000 0000 0000 0000 0000 0000 0000
000000b0: 0000 0000 0000 0000 0000 0000 0000 0000
000000c0: 0000 0000 0000 0000 0000 0000 0000 0000
000000d0: 0000 0000 0000 0000 0000 0000 0000 0000
000000e0: 0000 0000 0000 0000 0000 0000 0000 0000
000000f0: 0000 0000 0000 0000 0000 0000 0000 0000
0.0 0.0 0.0 0.0 0.0 0.0 0.0 0.0
0.0 0.0 0.0 0.0 0.0 0.0 0.0 0.0
0.0 0.0 0.0 0.0 0.0 0.0 0.0 0.0
0.0 0.0 0.0 0.0 0.0 0.0 0.0 0.0
0.0 0.0 0.0 0.0 0.0 0.0 0.0 0.0
0.0 0.0 0.0 0.0 0.0 0.0 0.0 0.0
0.0 0.0 0.0 0.0 0.0 0.0 0.0 0.0
0.0 0.0 0.0 0.0 0.0 0.0 0.0 0.0

conv2d_2/kernel f4 [64, 3, 3, 64]
00000000: 72db 29bd 6a25 693d 6826 3f3d 5f1e 89bd
00000010: a4b3 323d 8190 54bc b297 053d 4a7f da3c
00000020: 1af8 83bd 6a7d 82bd b35a 1fbd 972b 83bc
00000030: 8557 5dbd dd5d 2dbd 3b8c 6c3d 1db3 0dbd
00000040: f418 3f3d 69c5 5a3d 913a 1ebd d3b6 02bd
00000050: 8b56 2b3d 6958 78bc 08e6 8d3b 2ea1 3fbc
00000060: b77f 8a3d 88ab 0c3c f8e6 3e3d 45e6 883d
00000070: 93ce 273d 3bca 8dbc 33ad 8dbc 57e8 dfbc
00000080: 534a 203d 5da2 0a3d ad3a 183d 5fb1 843d
00000090: 32a8 733d e0a3 80bc b45f 73bd bd4f 00bc
000000a0: 5e91 05bd 100e 093d 4a2c d33b 30d0 ef3b
000000b0: 29f3 15bd 02f9 213d 44d8 d93c f5d9 5abd
000000c0: f7eb f63c 9192 a43b 2e41 833d b750 63bd
000000d0: 16ea 783d fe94 e23c 87e2 093d 87f6 753a
000000e0: e10b 333d ba1b 843d b8a3 0a3d fd6b 5fbd
000000f0: eadb 7a3d 903b 51bd 5fc2 8fbc a87b 5e3c
00000100: 8407 b73b f633 c7bc 8dfb 123d ff82 3e3b
00000110: 634b d73c b94c 7cbd 3caa 113c 10c3 f63c
00000120: 7067 e73c c26c 51bd efe6 933c 373e 72bd
00000130: 8d47 753c 00ce 20bc 236b 6c3d 2512 3bbd
00000140: c399 323d f5e5 653d fe45 23bd 02cc 633d
00000150: 3992 89bc f150 633c cee2 62bd 6472 8d3d
00000160: 54b8 a2bc 8786 5d3c bbca 83bd 14c4 823b
00000170: e4f4 97bc c1e5 7cbd 95a7 b03b 1427 323c
00000180: 2b90 db3c 1568 7a3b e61c 563d 0751 6fbd
00000190: e709 783d 54a5 9abc 00fa 88bd 9ad2 a2bb
000001a0: 557a 933d 5b34 273d 5554 bebb 6bf2 08bd
000001b0: bc87 eb3b 0cb9 ce3b 0350 713d 76fc 163c
000001c0: ca10 90bd a2b8 8f3d 406b 023d c12e b0bc
000001d0: 03ae 1fbd 983f 8ebc 1d82 173b 2b3a 3b3c
000001e0: 51a5 5b3d 3150 7ebc 316b 80bd c875 123d
000001f0: 492c 153c d618 613d 5dee 74bd afcd 323d
00000200: 68b6 62bd d35e 12bd 8080 533c da1d 58bd
00000210: f66c 8bbd 3b2e 203d 3dea 2fbb 02ba 88bd
00000220: 1cfa 913d 8f36 403c 156c 86bd 13d7 653d
00000230: d46e bb3b 2964 bc3c 23ca ec3c 7354 2b3b
00000240: cbe3 723b ba3f 26bb 92be 65bc b5be 27bc
00000250: 5d6b 55bd 2068 c2bb d3ef 01bd b3a4 f23c
00000260: 5cd3 0dbd 7387 813d e24e 8e3d 3a85 8b3d
00000270: d8e1 0db9 2345 bbbc 172d 5bbd 8f35 6b3d
00000280: 6582 543d 10de 883d b1ce 49bc f658 243d
00000290: d4e9 873c 8f50 873d ac02 75bd d372 84bd
000002a0: 0da2 debc 3d34 b9bb 9572 63bd 2525 41bd
000002b0: 6428 e6bc b43a 843c 5a33 9ebc 2fc1 9eba
000002c0: e7b3 5ebd b673 45bd 1551 babc 0958 0ebb
000002d0: c68a 14bc df2f cc3a 73a6 90bc bc0b 6b3c
000002e0: ff53 a13c a7e4 cd39 5e66 1a3c 2dfb 6c3d
000002f0: 7e13 68bd 25e2 d03b 8ba7 54bd 97c8 4d3d
00000300: b841 70bd 4a72 c73b 62bb cb3c d77e 733d
00000310: dd2f fe3c 4496 803d 5cd5 c7bc a1ad 923d
00000320: 8fa0 24bb c8e9 533d f7d8 473d 429d 5bbd
00000330: c10c c7bc 9f4c 3f3d c867 51bd ba6b 9e3c
00000340: a945 a9bc e6f0 b2bc 3640 0cbd ced6 1fbd
00000350: 859a 8cbd d984 2ebd d778 ef3c ad15 783d
00000360: 716c 203d f8ef cfbc 570d 89bd 03fe e93c
00000370: be4d 8abd 669c 403d 491b 883d b3fd 953c
00000380: 92da 21bd 9143 87bc 198e 873d a60b 9abc
00000390: 151f 473d e801 8c3d 45e4 e03c 6c62 883d
000003a0: c35a 853d 94f5 e4bc d062 35bd 9870 423d
000003b0: 6fbb 8a3b 24a3 1cbd 907a a93b 776c 3fbd
000003c0: 9c37 9f3c c134 eebc 3580 46bd c19f 373b
000003d0: 65e0 8a3d ac8e eabc ab46 7cbd dc1e f2bc
000003e0: 6c29 713d 0772 93bd 06fa 46bd 4403 4fbd
000003f0: 3a64 a03c e096 563d 36ef 74bd 6920 a5bc
-0.041469045 0.056920446 0.046667486 -0.06695246 0.04362835 -0.012973906 0.03261537 0.026672024
-0.06443806 -0.06371577 -0.038904857 -0.016011996 -0.054038543 -0.042325843 0.05775092 -0.034594644
0.046654657 0.05341092 -0.038630072 -0.031912636 0.04183058 -0.015157797 0.0043304004 -0.011696143
0.06762641 0.008585818 0.046606988 0.066845454 0.04096849 -0.017308345 -0.017294502 -0.027332468
0.03913338 0.033846248 0.037165333 0.06479143 0.059486575 -0.015703142 -0.05941744 -0.007831511
-0.032609336 0.033460677 0.0064444887 0.007318519 -0.03660885 0.039544113 0.026592381 -0.053430516
0.030141814 0.005022355 0.064089164 -0.055496898 0.060770117 0.027658936 0.0336633 0.0009382744
0.0437125 0.06450601 0.03384754 -0.054546345 0.061244883 -0.051082194 -0.017548738 0.013579287
0.0055856127 -0.02431677 0.03588443 0.002906978 0.026281064 -0.061596606 0.008890685 0.03012231
0.028247565 -0.05112911 0.018054454 -0.059141364 0.014970672 -0.009814739 0.05771936 -0.0456716
0.04360367 0.056127507 -0.03986167 0.05561448 -0.016793357 0.013874278 -0.05539208 0.06906584
-0.019863285 0.013520843 -0.06435152 0.0039906595 -0.01854939 -0.061742548 0.005391071 0.010873575
0.026802143 0.003820901 0.052273653 -0.058426883 0.06055632 -0.018877663 -0.06688309 -0.0049689533
0.07201067 0.040821414 -0.005808393 -0.033434313 0.0071878117 0.0063086804 0.058914196 0.009215465
-0.07034452 0.07017638 0.031840563 -0.021506669 -0.03898431 -0.017364308 0.0023118325 0.011427443
0.053624455 -0.015522049 -0.06270445 0.035756856 0.009104797 0.054955326 -0.059797633 0.043653186
-0.055349737 -0.035734963 0.012909055 -0.052762844 -0.06807892 0.03910659 -0.0026842498 -0.06676103
0.07127783 0.011731758 -0.06563584 0.056113314 0.005719999 0.022996979 0.02890498 0.0026142865
0.0037062045 -0.0025367574 -0.014022486 -0.010238339 -0.052104343 -0.005932823 -0.031722855 0.02961955
-0.034625396 0.06324663 0.069486395 0.0681252 -0.00013530941 -0.022860115 -0.053509798 0.057424124
0.051882166 0.0668298 -0.0123173455 0.040123902 0.01659099 0.06607162 -0.059817 -0.064672135
-0.027176881 -0.0056519792 -0.055529196 -0.047154564 -0.028095432 0.016141273 -0.019311596 -0.0012112017
-0.054370787 -0.048206054 -0.022743741 -0.0021719954 -0.009066289 0.0015578232 -0.017657494 0.014346059
0.019693373 0.00039271006 0.00942382 0.057856727 -0.056659214 0.006374615 -0.051917594 0.050240126
-0.058656424 0.0060866224 0.024869625 0.059447136 0.031028682 0.06278661 -0.02439373 0.07162023
-0.0025120114 0.051736623 0.0487909 -0.05361677 -0.024298074 0.04670393 -0.051124364 0.019338477
-0.0206631 -0.021843385 -0.034240924 -0.039023213 -0.0686541 -0.042607162 0.029232426 0.060567547
0.039165918 -0.02538298 -0.066919975 0.028563505 -0.067531094 0.047024153 0.06645829 0.01830945
-0.039515086 -0.01651171 0.066189 -0.018804383 0.048613627 0.06836301 0.027452597 0.066593975
0.06511452 -0.027949132 -0.044283688 0.04747066 0.0042337696 -0.03824152 0.0051720813 -0.0467343
0.019435696 -0.02907789 -0.04846211 0.0028018805 0.06781081 -0.028632484 -0.06159083 -0.02955573
0.058877394 -0.07199483 -0.048578285 -0.050540224 0.019579042 0.05238998 -0.05979844 -0.020157056

conv2d_3/kernel f4 [64, 3, 3, 64]
00000000: 6149 033d 7d87 efbc 2c08 4cbd 644d 2b3c
00000010: c2b6 1f3d 4401 943c b468 81bd f3a8 9e3b
00000020: a3ec 853d 88c6 2abd 4ca7 14bd ea8a 5cbd
00000030: d954 48bc 449e 993c 02ac 213d 2241 92bd
00000040: 0086 93bd 10c6 5c3d 42d0 623c e648 babc
00000050: a76f e13b 31f3 c3bc 24e9 bb3c 4feb 573c
00000060: 46d7 2ebd 3531 413d 231a 87bd 2595 ffbc
00000070: 5202 bb3b 8dc8 4d3d aaba 51bd 2aff 953c
00000080: 3728 99bc d5df 113d fa87 b9bc 5b73 843d
00000090: 8cee 3a3d e8a9 3bbc 23dc 473d 9664 1cbd
000000a0: 3348 18bc e892 8dbc a18c 643d a325 18bd
000000b0: 6eb0 ec3c 10c8 e03c ba36 3fbd 07b6 29bd
000000c0: 1a31 aebc f415 e93c ddab 7f3d 7d4a 1ebd
000000d0: 8c1c 8cbd 32a0 253d d9d7 5abd f182 8bbd
000000e0: adaa afbc 50d5 823d 2bfb 873d 1456 ecbc
000000f0: e668 853d 3032 a03c 7a0a d1bc 2535 cebc
00000100: 12c8 0cbd 9f49 8ebd aef4 223d c89b b43c
00000110: 7542 82bc 4dc5 403c 308e 7abb 9324 be3c
00000120: 1ac0 d5bc 5976 79bd 5cfc 263d 2892 b53c
00000130: 7450 55bb f7c0 923d 2a5d 91bd 459a f23b
00000140: 64b6 3bbd 27db 903d fbff 76bd 8bcd 17bd
00000150: 62ae 283d e651 3dbc 2678 87bc e33c 383d
00000160: 0945 60bd 2af2 8a3d 8461 7ebd 1a6b 5fbd
00000170: 54be 9939 2290 58bc 88b4 74bc 683c 82bd
00000180: b522 0abd f8d0 64bc 2912 ccbc 79fb cc3c
00000190: a96c 59bd 53a5 62bc 1f49 403d dc77 1cbd
000001a0: 375b 5fbd 8f0a 45bd 2f22 59bd ab12 4cbd
000001b0: 1d18 01bd fdc0 973c d479 e93c d61e e6bc
000001c0: 4c35 0ebd feaf 883d 84c7 56ba 6657 0bbd
000001d0: c393 1c3d 245f b83c fe6f 5d3d ba09 00bd
000001e0: 0126 eb3c 3f18 653d 1c19 6e3d bf7f 2abd
000001f0: 15b0 593d 068f ad3c 3c4b b73b f200 363d
00000200: fd95 c8bc ab50 01bd 0893 933d 3b31 3cbd
00000210: eac6 8f3c 42e1 71bd 035d 923d d1b6 89bd
00000220: de76 1cbd a273 6c3d 30af 8b3c 2104 74bd
00000230: cfd7 f5bc 0f53 4e3d a673 4d3c f4f7 733d
00000240: b6e9 bebc 0c10 9b3c f1ca 2fbd bcc8 23bd
00000250: 7256 bd3c fb8c 543d e00a 17bd 333d 9b3c
00000260: f79a 36bd 1932 74bd c93e 9fbc 7762 b93c
00000270: 71e5 16bc e6c6 7e3a 6dfe dc3c cedd e7bc
00000280: 65d3 843d 2f11 56bc 0528 653c f421 7c3c
00000290: b857 debc e3c1 20bd a329 58bc d368 7abd
000002a0: efa4 2e3c 4369 cabc 7730 5739 3c09 04bd
000002b0: 7873 f4ba 4128 913d a7e9 f7bc 97d6 1bbc
000002c0: f622 903d e825 4cbd e950 443d c32a 9e3a
000002d0: aba5 313d 2a32 55bd 7799 b53c 08a6 173d
000002e0: c8ae 84bd eccd 5a3d b33d 82bd 2d10 61bd
000002f0: 6488 c6bc aa12 edb9 2d9a a8bb 61a8 4a3c
00000300: af49 7d3c 6b5d 8bbb 1369 d2b8 7c2f 01bd
00000310: 22fc a0bc ae4e d33c 6b6b 453d 6f7d 0b3d
00000320: 307b f83c f5a4 4b3d f066 5dbd c191 34bc
00000330: 2cef fa3c 7e0a ba3c 4ff2 163c 420b 8f3d
00000340: be6e 833c 522a 34bc a8a1 18bc 81d6 d83a
00000350: 574c c7bc 4ec1 38bd f364 733d c6ba 4b3c
00000360: 8e86 d43b 473d 15bd c758 f53c c1cf 83bd
00000370: 7b26 3b3d 8465 473d d24c eebb d8dd 17bd
00000380: 2cb0 813c d65b 1f3d f9de 46bd 6af1 80bd
00000390: eff8 4a3d a065 35bd 91a8 6a3c 1f4b 8abd
000003a0: 9faf 373b a765 813d 3330 08bd ad10 dabc
000003b0: 2c1e 39bd 8b4c d23c 1cb2 aabc b5f7 8b3d
000003c0: 833b 853b db4b 3dbc fb28 1fbd ab8c 32bd
000003d0: 0e23 98bc 5f07 493c 80d2 183d f9f3 16bd
000003e0: 1606 dfbb 461c e3bc dd64 03bd 3f54 43bd
000003f0: 50e3 273d f5fb 9d3c 64cf 5a3d 7f88 ed3c
0.0320524 -0.02923941 -0.04981248 0.010455463 0.03899265 0.01806701 -0.06318799 0.0048419177
0.065392755 -0.04169324 -0.03629236 -0.053843416 -0.0122272605 0.018752225 0.03947068 -0.07141329
-0.07203293 0.053899825 0.013843598 -0.022739839 0.006879765 -0.023919674 0.022938319 0.0131786605
-0.04268577 0.047166068 -0.06596782 -0.031199047 0.0057070637 0.05024009 -0.051203407 0.018310148
-0.018695934 0.035613853 -0.022647846 0.06467315 0.045637652 -0.011454083 0.048793923 -0.038181864
-0.009294557 -0.017281964 0.055798177 -0.03714527 0.028892722 0.027439147 -0.04668305 -0.04143336
-0.021263648 0.02845285 0.06241976 -0.038645256 -0.068413824 0.040435977 -0.053428505 -0.068120845
-0.02144369 0.063883424 0.06639703 -0.028849639 0.065141484 0.019555181 -0.02551769 -0.025171826
-0.03437049 -0.06947636 0.039784126 0.022046939 -0.01590083 0.01176579 -0.0038231723 0.0232108
-0.026092578 -0.06090388 0.040768012 0.02216442 -0.0032549175 0.071657114 -0.07097848 0.0074036443
-0.045828238 0.0707305 -0.060302716 -0.037061255 0.04118193 -0.011555171 -0.016536783 0.04497994
-0.054753337 0.067844704 -0.062104717 -0.0545455 0.0002932424 -0.013217958 -0.01493562 -0.06359178
-0.033724505 -0.013965838 -0.024911003 0.025022255 -0.053082142 -0.013833362 0.046944734 -0.038200244
-0.05453035 -0.048105773 -0.053011116 -0.04982249 -0.031517137 0.018524641 0.028500475 -0.028090876
-0.034718797 0.06674193 -0.00081931823 -0.034018897 0.038226854 0.022506304 0.054061882 -0.031259276
0.028704645 0.055931326 0.058129415 -0.041625734 0.05314644 0.021186363 0.0055936854 0.044434495
-0.024485582 -0.03157107 0.07205778 -0.045945387 0.017550904 -0.059052713 0.07146647 -0.067243226
-0.038199298 0.057727464 0.01705131 -0.05957425 -0.030010132 0.05037218 0.01253978 0.05956264
-0.023304801 0.01892855 -0.04291815 -0.039986357 0.02311251 0.051892262 -0.036875606 0.01895008
-0.04458138 -0.05961809 -0.019439118 0.02262996 -0.0092099765 0.0009718969 0.026976788 -0.028304007
0.06485633 -0.01306562 0.013986592 0.015388954 -0.027141437 -0.039247405 -0.013193521 -0.061135124
0.01065944 -0.024708396 0.00020522052 -0.03223537 -0.0018650135 0.07087756 -0.030262781 -0.009511611
0.07037918 -0.049840838 0.047928724 0.0012067187 0.043370884 -0.052049793 0.022167904 0.037023574
-0.064786494 0.05341904 -0.063594244 -0.054947067 -0.024234958 -0.00045218068 -0.0051453323 0.012369246
0.015459462 -0.0042530796 -0.00010033152 -0.031539425 -0.019651476 0.025794353 0.048198145 0.03405517
0.030332178 0.049717862 -0.054053247 -0.011021079 0.030631624 0.022710081 0.009213044 0.06984569
0.016044017 -0.010996418 -0.009315886 0.0016543419 -0.024328394 -0.045106225 0.059422445 0.012434667
0.0064857667 -0.03643539 0.029949559 -0.0643611 0.045690995 0.048680797 -0.0072723413 -0.0370768
0.015831076 0.03890594 -0.048552487 -0.06296046 0.049553808 -0.04428637 0.014322416 -0.067526095
0.0028028262 0.06318217 -0.03324909 -0.02661928 -0.04519479 0.025671264 -0.020836882 0.06834356
0.0040659322 -0.01155373 -0.03885744 -0.043591183 -0.018571403 0.012269824 0.037310123 -0.036853764
-0.0068061454 -0.027723443 -0.032078613 -0.047687765 0.040988266 0.019285182 0.05342044 0.02899575

dense/MatMul_bias f4 [10]
00000000: 0000 0000 0000 0000 0000 0000 0000 0000
00000010: 0000 0000 0000 0000 0000 0000 0000 0000
00000020: 0000 0000 0000 0000
0.0 0.0 0.0 0.0 0.0 0.0 0.0 0.0
0.0 0.0

dense/kernel/transpose f4 [10, 64]
00000000: 56b3 06be a606 75be 7cb6 5dbe 725a 103e
00000010: 16b9 663e 7055 a33c 5432 93bd b2f7 6a3e
00000020: e49e a73d ecc4 8cbd e2ff 88be 9f54 86be
00000030: a2da 61be e822 3f3d 8692 603e 2431 4e3e
00000040: 8430 ad3d e0d0 4bbc e439 70bd 0a6e bbbd
00000050: c85f 273d ad34 1fbe 9cea 79bd cc8e 85bd
00000060: 368d 92bd d15a 8b3e 0099 c4bb 80d6 4dbd
00000070: 467e 583e 842a 1cbe 8887 83be 4475 2fbd
00000080: 25d0 15be 707a e9bd c8f3 67be 77ee 68be
00000090: 4e2e e9bd 7b56 11be 4459 2bbe e098 35be
000000a0: 6a6d f7bd cec1 2fbe 60e5 4dbd 601e 73bd
000000b0: a04f 82be 63ef 71be d0e2 fcbd 95bc 823e
000000c0: dbf2 8d3e 80be 68be dc73 16be c016 8e3c
000000d0: d641 fbbd 4076 d2bb ef7b 09be a531 21be
000000e0: dc45 ac3d a028 fc3d 140a 57bd 2504 03be
000000f0: 8025 5bbc 44b0 4fbe 10d1 e6bc 2d0b 903e
00000100: 20f1 8c3d ee15 463e c08f 25bc 1c7f 7ebe
00000110: 3447 89be 6086 b0bd 48b6 0f3d be56 c2bd
00000120: 5583 8e3e 0e78 abbd 409f 9e3c ca7b 79be
00000130: f230 93bd 3b1e 8f3e 4c95 c4bd a3e1 72be
00000140: db66 8b3e f5a1 89be e3a0 52be 14de 38bd
00000150: 98f6 c8bd 30ca 293e fa7c 6e3e 21ee 80be
00000160: 4c38 3dbd 9089 b03c 8088 adbb 141f 4cbe
00000170: f0a7 86bc f270 3d3e 292a 843e 76dc 87be
00000180: bc26 13bd 2ba5 803e 7628 363e f055 81be
00000190: 6946 863e a0c0 76bc a783 1bbe 30f5 233e
000001a0: 10fc cfbd 9c57 9ebd 968b 68be 0036 0bbb
000001b0: b68c 31be d88c 3e3e 2fb0 47be c62c 81be
000001c0: d062 ce3d 601a e93d b5d8 41be f129 8b3e
000001d0: cab7 afbd 48f5 343d 60ff e5bc fce6 1bbd
000001e0: 70b6 9f3c fa04 94bd ece7 87be 4060 65bd
000001f0: e018 f23d dc8d 2fbe 7f13 17be d68e 03be
00000200: 1f56 903e b40e 4fbe 104f 393d fa9d 34be
00000210: 00bd abbc bc2f 6ebe 40f1 603d ebc7 903e
00000220: 546e 463e 0016 67bb 6305 8b3e 88f6 593e
00000230: 0489 1c3e e422 373e 48ca 85be f498 893d
00000240: 20c7 0c3e ad16 87be 5045 333d a861 4cbe
00000250: 08c9 723d 5ec1 303e b1a7 08be 70f3 eebc
00000260: cc42 ccbd 840e b43d 7dd5 893e 60ac e1bc
00000270: 001a f6bd e049 debd 7c9f ba3d 5ae6 6fbe
00000280: ceb3 683e 0933 6cbe 70ea f83d 1830 30be
00000290: 28dd 2ebe e643 04be 8a13 193e 1080 503e
000002a0: 589a cd3d f073 803c 003e d4ba 5a9f a2bd
000002b0: 2c7c f03d 91c0 4cbe e9cb 843e e64b edbd
000002c0: 5846 21be 5842 5dbe b8d3 433e 2f96 22be
000002d0: 604c 36bc aa79 203e 1319 57be a283 363e
000002e0: 0852 de3d 64b7 c43d 6c00 69be 00de a73a
000002f0: 7d82 26be a80f c93d e6b3 3a3e 4de5 7bbe
00000300: 32e6 4d3e 36d9 793e 6e9f 8cbe 808f 813c
00000310: c485 8dbd 6824 6fbd ea56 633e e85a df3d
00000320: fc46 953d 50e1 b5bc a016 3dbd 984b 133d
00000330: e7a2 40be 311b 863e 72c5 ebbd f971 8d3e
00000340: 2356 86be 6207 22be 493a 90be b873 5c3d
00000350: f4bf 6dbe 0b55 833e 5edf 1cbe a223 133e
00000360: de1d 493e 108e 0f3d f2d6 623e 2457 0e3e
00000370: a860 c43d 1ab8 56be c078 9e3d b5f9 843e
00000380: f4b5 ddbd 9073 043d a867 1e3d 2a01 113e
00000390: 9419 52bd caf5 723e 4ac0 34be 28ff 363e
000003a0: de41 e1bd 266b f0bd 9874 203d bc99 493e
000003b0: c1a2 0dbe e5af 8e3e 7c45 4fbe c2ab 0d3e
000003c0: e64d 4b3e 9edc 5c3e 10f2 b13d a18b 813e
000003d0: 544c 2b3e 4929 0fbe 8035 733b 3ca6 813d
000003e0: e45b 72bd 1a88 023e 8a99 88bd 7cf8 62bd
000003f0: 177b 17be 6016 d0bc 26bd 49be 6c0f 98bd
-0.13154349 -0.23928317 -0.21651644 0.14097002 0.22531542 0.0199382 -0.07187334 0.22946051
0.08184603 -0.06873497 -0.26757723 -0.26236436 -0.22056058 0.04666415 0.21930894 0.20135933
0.08456519 -0.012439936 -0.05864896 -0.09151848 0.04086283 -0.15547438 -0.061014757 -0.06521377
-0.0715584 0.27217725 -0.0059996843 -0.05025339 0.2114192 -0.15250593 -0.2568934 -0.042836443
-0.14630182 -0.11400306 -0.22651589 -0.22747217 -0.11385785 -0.14193146 -0.16733271 -0.17734098
-0.12081416 -0.17163774 -0.050267577 -0.05935514 -0.25451374 -0.23626475 -0.123479486 0.25534502
0.27724347 -0.2272892 -0.14692634 0.017344832 -0.122684166 -0.006422788 -0.13426183 -0.15741594
0.08411762 0.12312436 -0.052499846 -0.1279455 -0.01337564 -0.20282084 -0.02817586 0.28133526
0.068819284 0.19344303 -0.010105073 -0.24853176 -0.26812136 -0.0861938 0.035085946 -0.09489201
0.27834573 -0.08372508 0.019363046 -0.24363628 -0.0718707 0.27952752 -0.095987886 -0.23718886
0.2722691 -0.26881376 -0.20569186 -0.045133665 -0.09812659 0.16581035 0.23289862 -0.25181678
-0.046196267 0.02154997 -0.005295813 -0.1993373 -0.0164375 0.18500116 0.25813416 -0.26535386
-0.03592561 0.25126013 0.17788872 -0.25260878 0.26225594 -0.015060574 -0.1518694 0.160115
-0.10155499 -0.07731554 -0.22709498 -0.0021241903 -0.17338833 0.18608415 -0.19500802 -0.25229472
0.10077441 0.11381984 -0.18930323 0.27180436 -0.08579977 0.04417923 -0.028075874 -0.03806208
0.019496173 -0.07227512 -0.2654413 -0.055999994 0.11821151 -0.17143959 -0.14753531 -0.12847456
0.28190705 -0.20220453 0.045241416 -0.17638388 -0.020964146 -0.23260397 0.054917574 0.28277525
0.19378024 -0.0035260916 0.27152547 0.2128545 0.15286642 0.17884403 -0.2613089 0.067186266
0.13747835 -0.26384488 0.043767273 -0.19959128 0.05927375 0.17261264 -0.13345219 -0.029168814
-0.09973678 0.08791831 0.2692069 -0.027548015 -0.12016678 -0.10853934 0.091124505 -0.23427716
0.2272484 -0.23066343 0.121540904 -0.17205846 -0.17076552 -0.12916526 0.1494886 0.20361352
0.10039204 0.015680283 -0.0016192794 -0.0794055 0.11742434 -0.19995333 0.2593682 -0.11586742
-0.1574949 -0.2160734 0.19123733 -0.15877603 -0.011126608 0.15671411 -0.21005659 0.17823651
0.1085549 0.096052915 -0.22754067 0.001280725 -0.16260715 0.09817439 0.18232688 -0.2459919
0.20107344 0.24399266 -0.27465385 0.015815496 -0.069102794 -0.05838433 0.22201124 0.10906011
0.0728893 -0.022202164 -0.046164155 0.035960764 -0.18812142 0.2619262 -0.11512269 0.27626017
-0.26237592 -0.15823129 -0.28169468 0.053821295 -0.23217756 0.2565082 -0.15319583 0.14369062
0.196403 0.03504759 0.22152308 0.13900429 0.09588748 -0.20968667 0.07737875 0.2597176
-0.108257204 0.03233677 0.038673073 0.141606 -0.051293924 0.23726574 -0.17651477 0.17870772
-0.10998891 -0.11739187 0.039173692 0.19687551 -0.13831617 0.27868572 -0.2024135 0.13835052
0.19853935 0.21568534 0.08688748 0.2530184 0.16728336 -0.13980593 0.0037110746 0.06330535
-0.059169665 0.12747231 -0.0666991 -0.055412754 -0.14793049 -0.025401294 -0.1970106 -0.074248165
